model.ckpt (torch_old, 286526 bytes, 20 tensors)

layer1.0.weight f4 [16, 1, 5, 5]
000000 fa 9a 0b bd 03 76 85 3d 5c 59 1a 3c cf a0 0a 3e
       -0.034083344 0.065166496 0.009420719 0.13537906
000010 b0 87 22 be 91 86 b4 3d 9c 0d 04 bd 42 2b 92 3c
       -0.15872073 0.08814729 -0.03223954 0.017842893
000020 18 8e 0f be 15 b6 c4 3d eb c2 35 be 4a 82 2d 3e
       -0.14019048 0.09605042 -0.17750137 0.16944233
000030 ce 9d 0c be 8c 07 15 3e 23 58 b4 bd 60 a2 16 3c
       -0.13732073 0.1455366 -0.08805873 0.009193987
000040 8f 8a ad 3d c6 20 35 3e 83 d5 35 3d 8b 25 26 bd
       0.084736936 0.17688283 0.044393074 -0.040563148
000050 72 95 43 3e 5b 43 7e 3d 45 7b 4b be 4e 03 ff bd
       0.19099978 0.062075954 -0.19871242 -0.12451802
000060 25 6f e4 3a fe f6 45 bd 5b dc d3 3b 3d 5a e3 bd
       0.0017428143 -0.048331253 0.0064654774 -0.11101196
000070 4b 97 82 bd c2 d4 d9 3d bc 66 82 3d 3e 2d 99 3d
       -0.06376513 0.106362835 0.06367251 0.074793324
000080 11 8a 2e be d8 c4 b3 bd 73 60 37 bd a5 72 21 3e
       -0.17044856 -0.08777779 -0.044769716 0.1576639
000090 77 40 0a 3d 7b b0 27 be f4 8b 1a bd 9a 32 d2 3c
       0.033752885 -0.16375916 -0.037731126 0.025658894
0000a0 1c 37 7d bd d7 e3 d1 3d 80 4e 08 3e 44 d2 10 be
       -0.061820135 0.10248535 0.13311195 -0.1414271
0000b0 25 36 39 be 10 8f c9 3c 1b 2c b0 bc 82 44 16 3e
       -0.18087061 0.02460435 -0.021505406 0.14674571
0000c0 69 42 1a 3e f1 4a e6 3d 4a ae 72 3c 00 cc 06 3e
       0.15064396 0.11244763 0.014812062 0.13163757
0000d0 15 c8 a3 bd 6a 3b 04 be aa f6 de 3d ec 8b 82 bd
       -0.07997147 -0.1291329 0.10886891 -0.06374344
0000e0 dc 89 29 be f9 7d ba bd 9c 6d 11 be df 62 7b 3d
       -0.16556495 -0.091060586 -0.14201969 0.061373588
0000f0 66 bd 1f bd 12 f6 88 3d 54 77 32 be cf f8 99 3d
       -0.038998984 0.06687559 -0.17428333 0.075181596
000100 64 dc c8 3d 24 df f6 3d d6 92 65 be d0 2c 2c be
       0.09807661 0.120542794 -0.22419295 -0.1681397
000110 7a 16 3a 3e 3f 18 f6 3d 57 a9 ee bd 71 2d 74 bd
       0.18172637 0.12016343 -0.11653393 -0.05961365
000120 38 97 00 be a0 bb 99 bd b4 72 b5 bc 47 d7 bd 3d
       -0.12557685 -0.0750649 -0.022149421 0.092695765
000130 5f eb 1f be 83 42 6c bd 25 63 dd 3d 2f 94 1a 3b
       -0.1561713 -0.057680618 0.10809926 0.002358686
000140 7c 51 28 3e 90 b4 39 3e c1 10 e3 3d de 6a 7d bb
       0.16437334 0.18135285 0.1108718 -0.0038668434
000150 27 30 48 bd ee 17 39 3e 47 9a cb bd 2f 4b dc 3d
       -0.048874047 0.18075535 -0.099415354 0.10756528
000160 61 3e 88 3d 17 4b 14 3d b4 b6 0a be df 69 d9 3d
       0.06652523 0.036204424 -0.13546258 0.106158964
000170 b2 90 0a be 5c d9 d7 3d ab d8 56 bd 7e 39 3c be
       -0.1353176 0.10539505 -0.052452724 -0.18381307
000180 1a 8c 3d bd 6b 79 c4 3d 0a 41 08 3e b1 dc 78 3d
       -0.04627619 0.09593471 0.1330606 0.060757343
000190 f7 33 71 3d b2 88 85 3c 44 87 8c bd 21 39 4f be
       0.05888745 0.016300533 -0.06861737 -0.20236637
0001a0 ee 0c 93 3d 06 01 b5 bd 65 7b 3c 3d 38 6e e7 3d
       0.071802005 -0.08838086 0.046016116 0.113003194
0001b0 66 7c 3e 3e 59 72 2a be 3c d4 22 3e db 05 04 3e
       0.18602142 -0.16645183 0.15901273 0.12892859
0001c0 3a 79 a7 3c 3b ba 53 3e 9a d3 58 bd c8 47 d1 bd
       0.020443548 0.2067651 -0.052936174 -0.10218769
0001d0 bd 42 48 bd 43 bb e0 bd 37 2a 33 be 6f 59 20 3e
       -0.04889177 -0.10973217 -0.17496572 0.15659116
0001e0 78 cc e1 bd 29 c5 c9 bd b6 d8 13 be ad b9 bb 3d
       -0.110253274 -0.098520584 -0.14438137 0.09166274
0001f0 ee 25 21 be 06 d7 0c 3e 83 22 bc 3d 47 fb 1b bc
       -0.15737125 0.137539 0.0918627 -0.009520358
000200 59 de c1 ba 29 54 4b 3e 3f f9 1f be 61 2a 97 3d
       -0.0014790996 0.19856323 -0.15622424 0.0738113
000210 56 45 e5 bd 67 27 39 3e 82 14 a6 3c eb 8e 9a 3d
       -0.111948654 0.18081437 0.02027345 0.07546791
000220 c5 e2 26 3e 71 bf 3c 3d f9 64 45 bc ff 9d 00 be
       0.16297443 0.04608101 -0.012048 -0.1256027
000230 d6 78 40 be c5 71 2f be 5f 70 de bd 7e 4e 88 bd
       -0.18796095 -0.17133243 -0.10861277 -0.06655596
000240 ed 25 3a bd 07 bb cd 3b 1a 55 8d 3d 24 72 8f bd
       -0.045446325 0.006278399 0.069009975 -0.070041925
000250 11 68 14 be 12 54 07 bb 8a d2 1f 3d 9c 0b 34 3e
       -0.14492823 -0.0020649475 0.039019145 0.17582554
000260 85 3e 84 3d 46 51 3f 3e 29 11 4f bd bc 25 18 bd
       0.06457237 0.18683347 -0.050553475 -0.03714536
000270 a0 1e 73 bb 7b 0b 39 3e e2 15 f2 bd 55 ef 70 bd
       -0.0037097111 0.18070786 -0.1182058 -0.058821995
000280 f9 70 50 3d 5e 70 28 3e f2 80 0d bd cc 5e 28 3e
       0.05088899 0.16449115 -0.0345468 0.16442412
000290 1d ca bc 3d aa f2 c9 bd 6e eb 23 3e 67 5a ef 3d
       0.092182375 -0.098607376 0.16007778 0.11687165
0002a0 fc 9f 81 39 95 49 f8 3d bb e9 c8 3d b5 6a fa 3d
       0.00024723995 0.1212341 0.098102055 0.12227384
0002b0 ca 26 36 be 2f 49 aa bc 3e b6 ce 3b 2a 02 85 bd
       -0.17788234 -0.02078685 0.006308346 -0.064945534
0002c0 d0 61 c2 3d fc 18 3d be 29 f6 5e bd 24 9c 15 3e
       0.094913125 -0.18466562 -0.054433975 0.14610344
0002d0 cc 7a 0f 3e 08 a1 0d bc c8 d6 60 bd f0 86 e0 3c
       0.14011687 -0.00864435 -0.05489233 0.027408093
0002e0 b1 89 fc bd 64 bc 0c 3e 74 42 37 bd b5 34 3f be
       -0.1233095 0.1374374 -0.04474111 -0.1867245
0002f0 56 03 16 be 76 e9 8f 3d 18 62 3e 3e 63 1f 5b bc
       -0.1464971 0.07026951 0.18592107 -0.013374182
000300 b5 75 06 be 03 9e 54 be a1 d0 45 3d 49 46 0b 3e
       -0.13130839 -0.20763402 0.048294667 0.1360103
000310 1d 20 0a 3e 20 95 00 3e e3 ee 3a 3d d2 e4 2f be
       0.13488813 0.12556887 0.045637976 -0.17177132
000320 26 b5 34 3e 82 ad fb 3c 92 de dd bc 49 0d fd 3d
       0.17647228 0.030722383 -0.027083669 0.123560496
000330 db 5a 0a 3c 21 89 d5 3d cb e2 79 3c 9a 42 a7 3c
       0.008444513 0.10426546 0.015251826 0.0204175
000340 d0 df 33 bd 29 54 92 3d c9 66 18 be 13 f9 19 3e
       -0.043914616 0.071449585 -0.1488296 0.1503642
000350 f4 ad e5 3d ed 1a 4d 3c 52 4a 1f bd 24 b9 1b 3e
       0.112148196 0.012518627 -0.038889237 0.15207344
000360 98 5a 73 3d ac 5c a8 bc 17 ef be bd 81 d9 b7 bd
       0.05941257 -0.020552002 -0.093229465 -0.089770325
000370 8d 4b f6 3c 18 8d 3a 3e ee 4e 92 3d a9 c2 4a bd
       0.030065322 0.18217885 0.07143961 -0.04950205
000380 b0 0d 80 3d 92 15 37 be c2 d3 34 3e b0 c7 18 be
       0.06252611 -0.17879322 0.17658904 -0.14919925
000390 2a b8 49 3e 1c 9a f2 3d 4e f0 4c 3e 7b d5 ef 3d
       0.1969916 0.118458 0.20013544 0.1171064
0003a0 a1 a8 fb 3d a7 6b 00 be a1 7c 9c 3d 1d 26 3e 3e
       0.12288023 -0.12541066 0.076409586 0.18569227
0003b0 b8 53 f3 3d eb 3d 6b be e8 b5 d5 3d 42 47 f7 bd
       0.118812025 -0.22972839 0.104350865 -0.12074138
0003c0 e5 73 c1 bd e8 28 20 3e a5 d2 88 bd 91 41 db 3d
       -0.09445933 0.15640604 -0.06680802 0.10705865
0003d0 5a 39 2a 3e cb 1e fc 3d 17 cb f2 3c 11 5e ce 3c
       0.1662344 0.12310561 0.029637856 0.025191339
0003e0 3a 95 ae bc ed d6 df 3d e0 7b a6 bd c1 34 fb 3d
       -0.021311391 0.10929666 -0.08129096 0.122659214
0003f0 84 68 89 3d 5d b0 15 bc 41 59 0f 3d f6 05 0b 3e
       0.06709388 -0.009136287 0.03499723 0.13576493

layer1.0.bias f4 [16]
000000 a5 0d 0c bc b9 9a 46 3c 6e f4 0e be 5a a5 52 be
       -0.008548175 0.01212185 -0.1396043 -0.20570889
000010 51 37 d3 bd 58 20 96 3d 4e 94 96 3a fc c0 9a bd
       -0.10313285 0.07330388 0.001148829 -0.0755634
000020 90 2f 3e 3c 1f 91 70 bd 76 38 48 bd 9e 28 07 3e
       0.0116080195 -0.05873215 -0.04888197 0.13199088
000030 5b 03 33 3e db 73 cc bd 9c 35 ac bd 70 e8 00 3e
       0.17481749 -0.09983035 -0.08408663 0.12588668

layer1.1.weight f4 [16]
000000 44 27 ef 3e 0c ff 14 3f 73 b3 5e 3f 63 f4 9b 3e
       0.46709645 0.5820167 0.8699257 0.3045989
000010 4d 40 b1 3e f0 e9 2c 3f be e4 74 3f 3f b2 65 3f
       0.3461937 0.6754446 0.9566153 0.89725107
000020 1d f4 50 3f bd a3 3e 3f 16 00 c1 3e 02 9b 16 3f
       0.8162249 0.74468595 0.37695378 0.58830273
000030 2e 4a e0 3e 25 2b 51 3f d2 4e 67 3f 9c b2 a6 3e
       0.43806595 0.8170646 0.90354645 0.32558143

layer1.1.bias f4 [16]
000000 43 01 d4 bb df 66 d6 3c bc 84 91 3c 3d 6b 79 bc
       -0.006469877 0.0261721 0.017763488 -0.0152233215
000010 f8 5f c6 3b 83 bc 93 bc ac 28 9a 3c 9d 50 03 bd
       0.006053921 -0.018034225 0.018818222 -0.0320593
000020 08 ec ed 3b e5 7e 48 3b 32 30 94 3c 22 84 ac bc
       0.007260803 0.0030593213 0.018089388 -0.0210591
000030 b5 ae cd 3c e8 37 88 bb f0 0e 25 3d 3e 5e d3 3c
       0.02510772 -0.004157055 0.04029745 0.025801774

layer1.1.running_mean f4 [16]
000000 82 19 53 3c 61 4a 50 3c 18 fa 6c be d5 d1 f9 bd
       0.0128844995 0.012713046 -0.23142278 -0.121982254
000010 e7 b0 0d be 55 c9 5b 3d 23 e8 1b 3e 6f 23 b6 bd
       -0.13837014 0.053658802 0.15225272 -0.08893477
000020 ab aa 01 3e 51 40 bd 3d e2 66 a4 3b 51 87 b7 3d
       0.12662761 0.09240783 0.0050171474 0.089613564
000030 4f ce dd 3d 60 68 11 be bb 56 13 bd fd 71 fc 3d
       0.10830366 -0.14199972 -0.035971384 0.12326429

layer1.1.running_var f4 [16]
000000 60 00 44 3c 78 6a 89 3c 1c 16 55 3d ae 2d f4 3c
       0.01196298 0.016774401 0.05202304 0.029806938
000010 17 81 8f 3c 71 82 c3 3c 7d 6b 92 3d 0d 32 08 3d
       0.01751761 0.02386591 0.07149408 0.033250857
000020 ad 6f 35 3d a7 8a 7a 3d f8 33 cc 3c 41 4a 8b 3c
       0.044295955 0.061167385 0.024927124 0.01700318
000030 4a b5 bd 3c 19 44 c5 3c 2c 2f a5 3d 2c 1e f4 3b
       0.023157734 0.024080323 0.08065638 0.007449886

layer2.0.weight f4 [32, 16, 5, 5]
000000 0e 54 36 3d 8b e1 2d 3d d3 b3 21 3d 6c 26 77 bc
       0.044513755 0.042451423 0.039478134 -0.015084844
000010 db 25 de 3c de cd 22 3b 2f d8 cf 3b 42 09 1a bd
       0.02711766 0.0024841945 0.0063429098 -0.037606485
000020 c5 bc 9c bc 4c 88 8e 3c 08 77 f5 ba 10 a1 8a bc
       -0.019132981 0.017398976 -0.0018727491 -0.016922504
000030 76 da dd bc 6e 92 47 3a 5a a5 8c 3d e4 b3 a1 bc
       -0.02708171 0.0007613067 0.06867476 -0.019739099
000040 1f 16 fa 3c 25 dc 4d bd dd 5b 7e bc 4d ba 50 3d
       0.030528126 -0.050258774 -0.015524832 0.05095892
000050 be 68 8d bb 4d 83 24 bd 52 98 d4 3c b8 69 bb bc
       -0.0043154648 -0.04016428 0.025951538 -0.022877559
000060 af 84 03 bd 2e 1a bc bb be 97 bf 3b 9e 16 59 bd
       -0.03210896 -0.0057404255 0.0058469465 -0.053000085
000070 c3 1b 0f bd 4b 3a 17 bd f2 f8 3f bd e8 dc 4b bc
       -0.034938585 -0.036920827 -0.046868272 -0.012442805
000080 5f ba 2f bc 33 ff c0 bb 21 35 03 bd 0d 1e 61 bc
       -0.010725587 -0.005889797 -0.03203309 -0.013740075
000090 62 5c 3a 3d 77 71 1e 3d 94 7f 60 3d 48 00 92 3c
       0.04549826 0.038682427 0.054809168 0.0178224
0000a0 6c 5d 33 3d 50 5c d9 bc a5 3b dc bb 43 c2 b0 bc
       0.043790266 -0.026533276 -0.0067209774 -0.021577006
0000b0 55 d3 47 bd 5a f3 a8 bb 6b 29 cd bc 99 26 0a 3d
       -0.048785526 -0.005155963 -0.025044164 0.033728216
0000c0 3d a8 86 3c 30 d0 ae bc 26 fb 32 bd 48 d3 03 3d
       0.016437644 -0.021339506 -0.043696545 0.032183915
0000d0 66 f5 73 bb f8 47 e3 bc 2d 60 28 3d 17 17 53 bc
       -0.0037225126 -0.027744278 0.041107345 -0.012883923
0000e0 9d 9b 27 3c 31 13 09 3c c2 19 b9 b9 5a 2a aa bc
       0.010229972 0.008366392 -0.0003530514 -0.020772148
0000f0 c1 70 fd 3c 41 49 a1 bc fa 31 69 3c 18 34 3b bc
       0.030937554 -0.01968825 0.014233107 -0.011425994
000100 83 ae 70 bb 11 82 ee bb 72 80 2c bd 79 ef f1 bc
       -0.003672511 -0.0072786887 -0.042114682 -0.029533135
000110 ab f1 9b bc 46 2e 85 bc 6e 68 2f bd d3 70 86 bc
       -0.019036135 -0.016257416 -0.0428242 -0.01641122
000120 7c 6a 36 bc 8b 7f 2e bc a6 0c f4 bc d4 c9 47 3c
       -0.011133786 -0.010650526 -0.029791187 0.012194116
000130 87 23 10 3d f1 11 75 3b 35 62 92 bb 26 c5 39 bd
       0.03519013 0.0037394727 -0.0044672736 -0.04535403
000140 ec a3 07 3d d6 58 12 bd 26 07 b1 bc 6e fa e3 3c
       0.033115312 -0.03572925 -0.021609854 0.027829375
000150 e1 39 5c 3b 74 bd 50 3c 65 be 40 3c 2d 88 20 3c
       0.0033603834 0.012740482 0.011764144 0.009798092
000160 c8 7f 9a bb b9 4c c8 3c f4 98 8f bb 09 69 60 bd
       -0.0047149397 0.024450647 -0.004382247 -0.05478767
000170 92 b1 55 bc 45 0f 59 3d 24 d8 3d bc 98 2b 19 bc
       -0.013042824 0.052993078 -0.0115871765 -0.0093487725
000180 e2 dc f3 bc 04 57 2d ba 01 21 80 3c a0 19 15 3d
       -0.029768411 -0.00066123926 0.015640737 0.03640139
000190 0d f6 94 bc b5 b7 c1 bd 30 18 47 bd 69 5f 02 bd
       -0.018183732 -0.094588675 -0.04860705 -0.03182927
0001a0 fc 47 1f bd 7d ae 89 bd 29 40 8a bd 53 4c 32 bd
       -0.03888701 -0.06722734 -0.06750519 -0.04352982
0001b0 20 46 8d bd f1 ad e5 3c ff 3d cf bb 63 d2 16 3b
       -0.06898141 0.028037043 -0.006324529 0.0023013584
0001c0 de 54 13 bc 17 83 1e 3d 06 e6 33 3d d2 2c 25 bc
       -0.008992402 0.038699236 0.04392054 -0.010081487
0001d0 16 95 ca 3c 18 bc dc 3b 8f ae 90 3d 8d 3e a4 bc
       0.024729293 0.0067362897 0.070645444 -0.020049358
0001e0 57 41 08 3d c4 ca ef bc 92 ce bc bc f7 83 28 3b
       0.033265438 -0.02927149 -0.02304772 0.0025713423
0001f0 0f 7a 8b bb 96 3f 8a bc bc b5 a0 bc 71 9f 1b bb
       -0.004256494 -0.016876023 -0.019617908 -0.0023746158
000200 4e 9a 01 3c 3a 3b 83 bd 96 12 b8 bc 0c fa 22 bd
       0.007910324 -0.06407781 -0.0224698 -0.039789245
000210 9f 77 f5 3c 1b d7 66 bd de 4e 0f 3b 2a ff dd 3c
       0.029964266 -0.056357484 0.0021867077 0.02709921
000220 22 71 09 bd 03 c7 8d bc 48 f0 64 bd 81 a4 50 3c
       -0.033555157 -0.01730681 -0.055893213 0.012734533
000230 72 e0 2a bd 2e e3 44 3d 0b 38 04 3c 6b 2f 46 3d
       -0.041717954 0.048068218 0.008070002 0.048385065
000240 42 66 02 3d 76 f8 8e 3b 2d be eb bc 42 87 2c 3d
       0.031835802 0.004363115 -0.028777206 0.04212118
000250 61 36 ec 3c be b9 82 3d 2c 74 a3 bc d5 1a ba 3c
       0.028834524 0.06383084 -0.019952856 0.022717873
000260 4f 70 de bc 9e d0 ed bc b1 cb 1e bd b3 38 37 bc
       -0.027153162 -0.02903014 -0.038768474 -0.011182952
000270 1f 5f ef 3a 92 9e 0c 3a 28 10 ec 3c e2 e0 c3 3c
       0.0018262601 0.0005364205 0.028816298 0.023910943
000280 89 22 1c 3c ba 8c bd 3c e3 9b 5d 3c aa b6 b8 3c
       0.009529718 0.023138393 0.013525936 0.022548039
000290 9d 4f 88 3c b2 a3 1f 3d 87 6c 20 3c 64 f0 ab bc
       0.016639525 0.03897447 0.0097915 -0.02098865
0002a0 d7 d5 3f bb 37 85 ac 3c fd 1e 47 bd ef 21 96 bc
       -0.0029271746 0.021059616 -0.048613537 -0.018326728
0002b0 70 32 26 bd db 66 1d bd 7f 2b 00 bd b9 80 4f bc
       -0.040575445 -0.03842817 -0.03129148 -0.012664967
0002c0 38 d5 de 3c 6d ad c3 bc 6e 26 fd 3c e1 b9 1f bd
       0.02720128 -0.023886407 0.030902114 -0.038995627
0002d0 17 aa d9 3b ed 8b 94 bb 7f cf 55 bc 98 f9 4d bb
       0.0066425907 -0.004533282 -0.013049959 -0.0031429287
0002e0 52 92 cb 3c fb ea b9 3c e0 0e 35 3d eb 5d 76 3d
       0.024850044 0.022695055 0.04420364 0.06014816
0002f0 c8 49 29 bc c6 4b 11 3d 7d 6c ba bc 0c d1 01 3d
       -0.010332532 0.035472654 -0.02275681 0.031693503
000300 a5 30 e8 bc 03 c8 c8 3b 31 25 b3 bc d2 c1 71 3c
       -0.028343508 0.006127359 -0.02186832 0.014755683
000310 76 27 b8 bc 07 23 19 3d 78 ec ba bb 5f b4 04 bd
       -0.022479754 0.03738692 -0.005704459 -0.032398578
000320 2d e5 52 bc d8 78 cc bc fe bc 3d 3d e8 99 2f 3d
       -0.012872023 -0.024959967 0.046322815 0.042871386
000330 54 b2 43 bc 00 c5 16 bd d5 ff 1c bd b9 24 8a b9
       -0.011944372 -0.036808968 -0.038329918 -0.00026348772
000340 3e 1d e4 3c 07 12 ae 3c 1c 1e b1 bb c4 26 0f 39
       0.027845975 0.02124883 -0.0054052006 0.00013651984
000350 6d 44 fd 3c a1 91 60 bc 66 70 d7 bc a7 f9 e6 bc
       0.030916417 -0.013706596 -0.026298713 -0.028195215
000360 59 ef 15 3c be 22 07 bd 95 18 99 3c 9a 6d fe bb
       0.009151303 -0.032992117 0.01868848 -0.0077645304
000370 18 ef c7 3c 3b 29 e1 3c 3b fe 38 bd a8 47 73 bc
       0.024406001 0.02748548 -0.045164328 -0.014848627
000380 94 dc 1f 3c ad cc 76 bb 8b db bb bc e6 92 48 bc
       0.00975718 -0.0037658617 -0.022931835 -0.012242055
000390 9e 32 df bc 50 27 32 3d 5a 17 cf bc f6 e0 49 3d
       -0.027245816 0.043494523 -0.02527969 0.049286805
0003a0 d4 9d c0 bc 82 d7 0c 3d 88 5f d1 bb a8 e8 8a bc
       -0.023512758 0.03438521 -0.006389562 -0.016956642
0003b0 b2 cd 2f ba b2 78 1b bd 09 16 43 3d 71 6d ea bb
       -0.0006706371 -0.0379569 0.047628436 -0.0071541597
0003c0 e2 a8 7e 3b 2a 8d d9 3c 38 14 29 bd b2 4f 8e 3c
       0.0038857986 0.02655657 -0.041279048 0.017371986
0003d0 49 d5 aa bc 68 ea dd 3c 97 5f 28 bd 3d 37 28 3d
       -0.020853655 0.027089313 -0.041106787 0.041068304
0003e0 88 e3 fe 3c ec 7f fb bc fb 4d 05 3d a3 d4 0e bc
       0.031114355 -0.030700646 0.03254507 -0.008717689
0003f0 98 db fb 3c 4d d8 f7 3b fd 71 81 bc 6d 0e 22 3d
       0.030744359 0.007563627 -0.015801424 0.03956454

layer2.0.bias f4 [32]
000000 01 1b 9c bc b6 3e 15 3c 98 b7 8b 3c 61 df e3 3b
       -0.019055845 0.00910919 0.017055318 0.006954119
000010 da f3 45 bd 3e a2 3b bd a8 a6 4a 3d 30 0c 77 3c
       -0.048328258 -0.045809023 0.049475342 0.015078589
000020 6e 6a 63 3c 1f 44 a6 bb 59 9d 0a 3d 5b b3 c7 3b
       0.013880355 -0.0050740386 0.033841465 0.006094379
000030 91 af 27 3d 44 d2 76 bb a4 aa 41 bd 07 b4 ac 3b
       0.040938918 -0.003766195 -0.047281876 0.0052704844
000040 6e 48 11 3d cb b1 7a 3a df 32 0e bc c3 f7 61 3c
       0.035469465 0.00095632364 -0.008679121 0.013791981
000050 84 23 3b 3d e0 e6 08 3d eb 65 3f bc ae 35 fd bb
       0.045688167 0.033423305 -0.011682014 -0.0077273464
000060 9b 36 bf bc fd df 9c ba 69 bd 84 bb 97 79 1a bb
       -0.023341468 -0.0011968609 -0.0040508998 -0.0023571008
000070 15 15 2f 3c 94 2a 0d 3d 22 da f2 3c 00 3c 65 3c
       0.010686179 0.034464434 0.02964503 0.013991356

layer2.1.weight f4 [32]
000000 72 17 8f 3e 13 76 57 3f 33 28 75 3f 14 7d b0 3e
       0.27947575 0.8416454 0.95764464 0.34470427
000010 ed 29 6f 3f 9f 28 53 3f 1c b8 91 3e 4d 3c 17 3f
       0.9342335 0.8248386 0.28460777 0.59076387
000020 c7 95 74 3e ec 65 1e 3f 59 35 91 3e bf 5b ed 3e
       0.2388526 0.6187427 0.28361014 0.4635906
000030 b2 af 37 3f 5c 01 5b 3e 4f 33 94 3e fb df 11 3f
       0.71752465 0.21387237 0.28945395 0.5698239
000040 c1 bf 5d 3e 1d c4 45 3f 3c 45 99 3e 40 7c 6d 3f
       0.2165518 0.7725237 0.29935634 0.92767715
000050 ad dd d4 3e 33 33 0f 3f 83 f3 c4 3e 28 4b bc 3e
       0.41575375 0.559375 0.38467035 0.3677609
000060 9e df 61 3f 15 83 0d 3f 0c 15 a5 3e c2 90 c3 3e
       0.8823184 0.5527814 0.3224262 0.3819638
000070 8c d0 44 3f e0 86 1a 3e a1 49 fe 3e 06 c0 5e 3f
       0.7688072 0.15090513 0.4966555 0.87011755

layer2.1.bias f4 [32]
000000 e8 1a cd 3a a1 b7 e2 bc 22 f6 f6 bc b1 e9 6a bc
       0.0015648277 -0.027675452 -0.030146662 -0.014337943
000010 d7 80 07 bd d5 68 b5 bc 65 a1 dc bb 4f 01 6c bc
       -0.033081856 -0.022144714 -0.006733107 -0.014404609
000020 7d 36 f4 bb f7 90 4d bc e0 9b 00 bd 13 16 1b bc
       -0.0074527846 -0.012546769 -0.031398654 -0.009465712
000030 7e 6a b4 bc 4e 2a 05 3c d2 c4 b5 3c 75 01 fd bc
       -0.022023436 0.008127762 0.022188578 -0.030884484
000040 99 f1 48 bc 53 3a 26 bd 47 39 d0 bb 45 2a ad bc
       -0.012264633 -0.040582966 -0.0063544842 -0.02113832
000050 c1 96 5c bc ae 70 15 3b d9 c6 8a 3b 2c 4c 70 3c
       -0.013463677 0.0022802758 0.0042351303 0.014666598
000060 c3 db 2c bd a1 29 59 bd 53 f0 e8 bc 3f 6e a4 bc
       -0.04220177 -0.053018216 -0.028434908 -0.0200721
000070 ec 21 d5 bc 57 ba 69 3a 1a a8 32 3a 66 82 4d bd
       -0.026017152 0.00089160114 0.000681521 -0.050173186

layer2.1.running_mean f4 [32]
000000 66 03 ac be 3c d3 42 3f 17 e0 72 be 76 53 17 be
       -0.33596343 0.7610357 -0.23718296 -0.14777932
000010 3c 94 c2 3d d2 18 2b 3f d9 1e d6 3e 36 b4 0d 3f
       0.0950093 0.6683475 0.4182041 0.55353105
000020 22 4a b8 bd 25 c1 dd 3e 90 73 42 3f de fd 41 bc
       -0.08998515 0.4331142 0.75957584 -0.011840312
000030 b7 ad 9f bd 81 a0 2e be 68 4a e5 bd 97 a4 2b bd
       -0.07796805 -0.17053415 -0.111958325 -0.041905012
000040 a5 23 24 bd 5a 8f d3 3e 45 2c ac bb d9 ae 01 3f
       -0.040073056 0.41320306 -0.005254301 0.5065742
000050 28 60 14 3e 86 19 93 be 72 0e 98 3d b2 78 3a be
       0.14489806 -0.2873041 0.0742463 -0.18210104
000060 0a 05 6c be 73 6e 7a bc 4f b8 3b 3e 47 70 43 3c
       -0.23048797 -0.015285122 0.18332027 0.0119286245
000070 3e 41 e8 3e ed de df bd b0 e8 0d be 68 c0 ed bd
       0.45362276 -0.109311916 -0.13858294 -0.11608964

layer2.1.running_var f4 [32]
000000 09 c4 c3 3d d0 82 b2 3e b2 5a 26 3e 96 e0 7e 3d
       0.09558875 0.34865427 0.16245535 0.0622259
000010 14 f3 9e 3e b1 65 84 3e 9e 8e b9 3d 87 bb 37 3e
       0.3104483 0.25858834 0.09060405 0.1794263
000020 53 a6 95 3d d7 5e 35 3e 3c d7 87 3e 1d a8 f4 3d
       0.073071145 0.1771196 0.26531398 0.119461276
000030 0e fe e5 3d 70 06 82 3d 60 75 40 3d 31 ed ad 3d
       0.11230098 0.06348884 0.046986938 0.08492506
000040 bf 3f b4 3d 91 2f 64 3e 30 e4 23 3d 61 77 b6 3e
       0.08801221 0.2228377 0.04001254 0.35637954
000050 9f 8a ae 3d 0b c2 67 3e b4 1a 9a 3d f6 a3 4c 3d
       0.085225336 0.22632615 0.075246245 0.049961053
000060 8e 84 74 3e f9 d6 1a 3e 71 8f b6 3d e5 1f 11 3e
       0.2387869 0.15121068 0.08914078 0.14172323
000070 36 29 8f 3e a6 01 4f 3d e9 f1 9a 3d 22 2c 67 3e
       0.2796113 0.05053868 0.07565672 0.22575429

layer3.0.weight f4 [64, 32, 5, 5]
000000 e3 b8 5c ba f9 13 5a bc 33 a0 e5 bc fd 65 99 bb
       -0.0008419884 -0.013310426 -0.02803049 -0.0046813474
000010 60 eb db bc d0 8a 48 3d 3f c3 36 3b ba 0f b3 bc
       -0.026845634 0.048960507 0.0027887372 -0.021858085
000020 e9 68 f8 bc 6c 78 d1 bc 2c a9 09 3d c3 21 5e bb
       -0.030323463 -0.025570117 0.0336086 -0.0033894635
000030 3a ab 4d bd a8 c7 40 3d fc 8f cf 3b 6d a4 1e bc
       -0.050212122 0.047065407 0.006334303 -0.009682757
000040 69 57 1d bd 70 01 e1 bc a4 dd a4 3c 09 c5 9a bc
       -0.03841344 -0.027466506 0.020125218 -0.018892782
000050 8e f5 f7 bb f7 ec 1a 3d 5c e6 14 bc 75 dc 72 3d
       -0.007567114 0.037823644 -0.009088125 0.059292275
000060 55 25 8d 3c 28 0d 12 bd f2 d2 46 3c 9b d2 b4 bc
       0.017229715 -0.035657078 0.012135254 -0.02207308
000070 b3 bd 32 3c 94 7f 39 3c 50 64 9c 3c 1a 3f 83 3c
       0.010909486 0.011321921 0.019090801 0.0160213
000080 e4 64 72 ba 17 7b 45 3c 03 28 55 3c 3a 5d 9c bb
       -0.0009246601 0.012053273 0.013010028 -0.0047718557
000090 05 91 9b 3c d0 5a b6 3c 80 55 1d bd 92 57 a3 3c
       0.01899005 0.0222601 -0.038411617 0.019939218
0000a0 89 12 6b bc ca 7b 13 bc c5 0d 5b bc f6 ac 1d 3c
       -0.014347681 -0.009001682 -0.013369982 0.009623757
0000b0 0c c9 ca 3c dc a0 4e bb 8d 6c fa 3c 02 d6 81 bc
       0.02475407 -0.0031528985 0.03056934 -0.015849117
0000c0 c7 4f c8 3c 03 0b ef bb 58 4a f9 bc eb cd a8 3b
       0.024452103 -0.007295014 -0.030430958 0.0051515005
0000d0 b3 e2 95 bc e7 01 ff bb cc 21 6d bc 3e 04 2c 3c
       -0.018296575 -0.007782209 -0.01447339 0.010499058
0000e0 93 95 b5 bb 27 81 38 3c d4 1c 31 3a 3b 06 81 bb
       -0.0055415123 0.011261261 0.000675631 -0.0039375103
0000f0 fa 86 7f 3c 3f 7f 93 bc 20 d8 22 bc 2f e7 3f bc
       0.015596146 -0.018005012 -0.0099392235 -0.011712833
000100 8b 61 2e 3d 02 6d 90 3b 4a c9 90 3c e4 fd c5 bb
       0.042573493 0.004407526 0.017674107 -0.006042229
000110 25 a6 85 bb b7 2e d7 3a 9a 2b 9b bc 3d 64 a5 bc
       -0.004078644 0.001641712 -0.01894169 -0.020189399
000120 74 ff d5 bc 77 64 65 ba 2e 86 fd bc 84 f7 a6 3b
       -0.026122786 -0.0008750627 -0.03094777 0.005095424
000130 3c 11 b3 bc 6e 2c c7 bc 64 fd 50 3b 96 5b 21 bd
       -0.021858804 -0.024313178 0.0031889314 -0.039393984
000140 bc 11 e5 bc 68 f0 78 3c 84 6e 45 3d 69 31 ff 3c
       -0.027962558 0.015194036 0.0482011 0.03115149
000150 5f a2 86 bc 3b ee 5d bc 76 41 31 bc 3b 0a d4 3b
       -0.016434846 -0.013545568 -0.01081883 0.006470946
000160 ed 82 06 bd cc 42 87 bc e3 40 86 3b 27 3d eb bc
       -0.032839704 -0.016511343 0.0040970906 -0.028715683
000170 03 02 5a bd 78 53 a4 bb 64 7a 05 bb 49 bb 3c bc
       -0.053224575 -0.005014833 -0.002036714 -0.011519262
000180 8e 14 fd bc 28 fe 90 ba 91 4c 78 3c 16 f7 ae bc
       -0.03089359 -0.0011062073 0.015154974 -0.021358054
000190 03 00 e2 bc 59 1a ea bb 5b c6 21 bc 14 79 3c 3b
       -0.027587896 -0.007144254 -0.009873952 0.0028758692
0001a0 fd a9 f5 bb f8 2f 03 bc 20 d7 ea bb f1 23 01 bc
       -0.007497071 -0.008007042 -0.007166758 -0.007882104
0001b0 5c 4f cc 3c 63 0f 75 3c 66 a7 0c bc 8a 15 9a bc
       0.024940185 0.014957282 -0.008584833 -0.018809099
0001c0 28 ae 10 ba c2 a8 0b bd c4 9d c3 3c 79 75 93 3c
       -0.00055191154 -0.034096487 0.02387894 0.018000351
0001d0 07 8a 8d 3c ef ac 3e bc 73 2c b5 3c 24 6e a0 3c
       0.01727773 -0.01163791 0.022115922 0.01958377
0001e0 72 c0 fa 3c 7a 14 e9 bb 26 9d 9c bc 5e ed 7f 3c
       0.030609343 -0.0071130367 -0.019117903 0.015620558
0001f0 5a e1 e3 3b 3b 42 ce 3b ff bd 93 3c 13 f3 10 3c
       0.0069543542 0.0062945164 0.018034933 0.008847016
000200 cc 1f 09 3d 69 58 0c 3b f7 89 11 3c 60 5d 57 3c
       0.03347759 0.0021415001 0.008882991 0.013144821
000210 eb de f8 ba e4 8b ee 3c 69 05 87 bc d4 5e 07 bb
       -0.0018987333 0.02911944 -0.016482072 -0.0020655887
000220 44 89 74 bc 97 76 2f 3a bd f4 ea 39 ce eb 13 3d
       -0.014925305 0.00066933915 0.00044814302 0.036113553
000230 eb 21 e4 b9 66 2b 5a 3c 81 f8 23 3c ca 65 88 bc
       -0.0004351282 0.013316011 0.010007978 -0.0166501
000240 ae 25 52 3b 98 47 e6 3c 9b 80 13 bd 9d 86 e4 bc
       0.0032065916 0.02811031 -0.03601132 -0.02789622
000250 5d 8d 3b 3c da 30 7d 3c e1 f1 f0 bc bd 17 16 3d
       0.011447278 0.015453542 -0.029412212 0.036643732
000260 9d f4 af 3c bc 4e d2 bc 76 2e b7 bc b2 a9 5a bc
       0.021478945 -0.02567231 -0.022361021 -0.013346123
000270 3c 00 f6 bc 48 8f 8f bc ef f1 7e bd 96 f5 a3 3b
       -0.030029409 -0.017524377 -0.062242445 0.0050036414
000280 97 ab 6c ba 5f 20 9f 3c 46 f6 1a bc 0a 50 b9 3c
       -0.00090282544 0.019424615 -0.00945813 0.022621173
000290 8b fd 31 bd 54 e8 2a bc 4d 6b 9e bc e3 46 ca bc
       -0.043454688 -0.010431368 -0.019338274 -0.024692005
0002a0 0a 98 0b 3d df d3 85 3c 09 83 06 bc 0d fa cf bc
       0.034080543 0.01633638 -0.008209952 -0.025387788
0002b0 0d df 17 bc da 40 26 bd 1d cf 07 3d 49 bb 94 bc
       -0.009269488 -0.04058919 0.033156503 -0.01815571
0002c0 0f cf 18 bb 8d 82 8a 3c 6b 1c 07 3d 20 2e 4c 3d
       -0.0023316776 0.016907955 0.032986086 0.049848676
0002d0 9a 3a f1 3b 92 aa 0a 3d e4 4c d1 bc 6d ba 82 3c
       0.007361722 0.033854075 -0.02554936 0.015958035
0002e0 3a b3 49 3c 85 20 8e ba 0a 61 ee 3b 64 8a ee bb
       0.012310797 -0.0010843432 0.0072747516 -0.007279681
0002f0 55 4e 4f bc 5d 16 08 3d a4 f3 f1 bc 71 ef c7 3b
       -0.012652953 0.033224452 -0.029535122 0.0061015417
000300 0f 5f db 3b f4 b1 fb 3c fa d3 3c 3d 0e 17 91 3c
       0.0066946815 0.030724503 0.046100594 0.017711189
000310 8e d3 7b bc 73 c4 fc 3c 41 ba 23 3d f9 e2 29 bc
       -0.015370263 0.030855393 0.039972547 -0.010369056
000320 6f b1 86 ba ce 32 ad 3c 92 0c 94 3c 25 9c 8f 3c
       -0.0010276268 0.02114239 0.0180724 0.01753051
000330 23 ce a7 bb 1d b4 90 3c b2 38 37 3c 2b 91 c1 bc
       -0.005121009 0.01766401 0.011182951 -0.023628792
000340 76 32 c9 bc fd bf 8b 3c 7b b6 5f 3b 04 a4 bb 3c
       -0.024560194 0.01705932 0.0034135866 0.022905357
000350 1f 7e 06 3c 3a 92 cd bb 7b 00 b5 bc 17 da 8b bc
       0.008208781 -0.006273535 -0.022094956 -0.017071767
000360 ab 90 3b bd e8 c7 1c 3c 85 fa 3f 3b 19 b7 99 bc
       -0.045792263 0.009569146 0.0029293608 -0.018764066
000370 57 76 03 3c 11 38 d7 bc bc 4c 76 ba 64 d6 87 3b
       0.00802382 -0.026271852 -0.00093955896 0.0041454304
000380 db 93 22 bd b1 2f 2f 3c 80 3e 15 bc aa ce d5 bb
       -0.039691787 0.010692523 -0.009109139 -0.0065248804
000390 c0 58 10 bd 66 c7 7f ba 39 a1 21 bc 08 1c 7e bc
       -0.03524089 -0.0009757191 -0.009865099 -0.015509613
0003a0 bf ca 2d bc 0b 22 22 bc 40 62 0e 3c 87 7d 85 bb
       -0.0106074205 -0.009895812 0.008690417 -0.004073802
0003b0 8e 9f 06 3c b2 95 a4 bc 4e 96 a9 bb cf 6b ab bc
       0.008216752 -0.020090912 -0.0051753884 -0.02092543
0003c0 79 8a 8e bb 03 31 a2 bb db 68 f2 3c 7d e9 ed bc
       -0.0043500033 -0.0049496903 0.029591015 -0.029042
0003d0 28 1e c8 bc 63 24 29 3c 6b e7 89 bc 95 c2 7b bb
       -0.024428442 0.010323617 -0.016833981 -0.003841554
0003e0 d6 6f 6e bc f9 d5 16 3b 39 00 c9 bc d8 f4 21 3c
       -0.014553031 0.0023015721 -0.024536239 0.009885035
0003f0 4d 15 b5 3c 40 7a 8a bc 2c 84 c2 3c 4a 90 8d bb
       0.022104884 -0.016903996 0.023744665 -0.004320179

layer3.0.bias f4 [64]
000000 09 7c 94 3c 98 f6 82 bc 61 79 b7 bc f4 0c 82 3c
       0.01812555 -0.015986726 -0.022396745 0.015875317
000010 00 35 ec bc 01 d7 e9 ba 3e 4d 8c 3c 3f 84 bf 3c
       -0.028833866 -0.0017840565 0.017126676 0.02337849
000020 11 ff e9 bb 52 b1 fd bc 81 3a 51 3b de 10 62 3c
       -0.007141002 -0.030968342 0.003192574 0.013797967
000030 47 0e 86 bc 8e 7c 09 bd ef 59 3a bb 10 fc 76 bc
       -0.01636423 -0.03356605 -0.0028434952 -0.015074745
000040 36 64 38 3c 8e 61 91 bb b0 db 74 3c 61 2a 92 bc
       0.011254361 -0.0044366783 0.014944956 -0.017842473
000050 28 ee bf bc e9 f7 66 3a 27 f0 9e b9 d3 ae 7a bb
       -0.023428991 0.0008810745 -0.00030315036 -0.0038251176
000060 6c 93 16 bc 7c 13 cd bc c8 fa ce bc 89 28 a3 bb
       -0.009190422 -0.025033705 -0.025266066 -0.0049791974
000070 43 6a ac bb 62 3a 9c bb 14 a4 0a 3d d3 e4 94 bc
       -0.005261691 -0.004767702 0.033847883 -0.018175518
000080 dd 41 d6 3a b1 2b 91 3c a3 74 ce 3b 46 a2 82 3c
       0.0016346533 0.017721029 0.0063005253 0.015946519
000090 3e e9 38 3c 52 29 10 bd 52 bc db bc eb 75 7b bc
       0.011286078 -0.035195656 -0.026823197 -0.015347938
0000a0 27 13 07 bb 5b 7a c4 3a 25 4d 72 3a 82 8b 7b bb
       -0.002061078 0.0014990078 0.0009243063 -0.0038382714
0000b0 83 6e d1 bc df d0 79 3c 8c aa 33 3c 18 9d 1f 3c
       -0.025565391 0.015247553 0.0109659545 0.009742044
0000c0 db 49 03 bc 0a 4c 07 3c 55 98 86 bc 69 91 7f 3b
       -0.008013214 0.008257875 -0.01643006 0.0038996583
0000d0 a8 78 b6 3c 73 56 d8 3c 5f 53 d7 bc 22 fd 4e 3c
       0.02227433 0.02640841 -0.026284872 0.012633594
0000e0 57 05 02 3d 89 a6 5b 3c 05 47 fa 3c 30 db 0c bd
       0.031743374 0.013406404 0.030551443 -0.03438872
0000f0 57 d8 4c 3c 78 4f 2c bb da ea ba 3c d2 16 0b bd
       0.012502751 -0.0026292484 0.022817064 -0.03395731

layer3.1.weight f4 [64]
000000 a0 e2 0e 3f 4d 0f 3d 3f 88 3a 05 3e c3 3f 66 3f
       0.5581455 0.7385147 0.13010609 0.8994104
000010 fc 77 2f 3f 9c 66 70 3f d8 11 6c 3e f4 38 11 3f
       0.68542457 0.9390657 0.23053682 0.5672753
000020 26 0c b5 3e ba 5d 60 3f 37 b4 93 3e 04 c9 8b 3f
       0.3536083 0.87643015 0.2884843 1.092072
000030 ea 29 52 3e 5b 50 f9 3e 66 1c 7f 3e 30 26 53 3f
       0.20523801 0.4869412 0.24913177 0.82480145
000040 c8 2a 2a 3e 8d 02 24 3f af 23 e5 3e c0 25 51 3e
       0.16617882 0.6406639 0.44753787 0.20424557
000050 fa dc 43 3f c3 cb 85 3f fe d0 88 3f ce ec 6c 3f
       0.7650906 1.0452808 1.0688779 0.92548835
000060 f2 31 d5 3e 9b 63 5e 3f 46 11 6c 3f 73 18 77 3e
       0.41639668 0.86870736 0.9221386 0.2413042
000070 67 99 30 3e e2 9f 21 3e 16 09 4f 3e 95 97 22 3f
       0.17246018 0.15783647 0.2021831 0.63512546
000080 31 6d 60 3f c5 6b 6a 3f 75 af 54 3f 8e 12 17 3f
       0.8766661 0.91570693 0.83080226 0.5901269
000090 8d 62 cb 3e 53 f8 f5 3e f2 35 7d 3f 27 d7 89 3f
       0.39723626 0.4804102 0.9891044 1.0768784
0000a0 32 9f 18 3f 99 64 86 3e 30 84 34 3f 68 ff 7c 3f
       0.5961791 0.26248625 0.705142 0.9882722
0000b0 f6 c8 65 3e 0f d9 29 3e 0c d5 6c 3e b7 6b 10 3e
       0.22439942 0.16586708 0.23128146 0.1410359
0000c0 ea dd 80 3f 2e cc 3d 3f a7 19 91 3f 5d 14 05 3f
       1.0067723 0.7413968 1.1335953 0.51984197
0000d0 44 fd 67 3f a2 34 16 3f e5 38 ad 3e 87 f2 5b 3e
       0.9062083 0.5867406 0.3383247 0.21479236
0000e0 0f 10 93 3e a5 88 31 3e 92 cc 17 3f d5 fa 5a 3f
       0.2872319 0.17337282 0.59296525 0.8553899
0000f0 10 75 f1 3e c9 aa 69 3e d0 26 2a 3f a2 ff 40 3f
       0.47159624 0.22819056 0.66465473 0.75390065

layer3.1.bias f4 [64]
000000 11 88 83 3d e5 06 8a 3d 38 a7 37 3d 56 7f 55 3d
       0.06422437 0.06739596 0.044837207 0.05212339
000010 a7 36 2b 3d e6 67 3d 3d 74 c3 58 3d 5f 19 9e 3d
       0.041800167 0.046241663 0.052920774 0.07719683
000020 79 82 25 3d a0 92 9b 3d 4d f8 40 3d 6f dd 7f 3d
       0.04040763 0.07596326 0.047111798 0.062467035
000030 67 80 61 3d 8b 65 2f 3d 00 e9 5a 3d f7 9b 5b 3d
       0.055054095 0.04282145 0.053444862 0.053615537
000040 bb 91 60 3d 4f c3 68 3d c7 67 40 3d 09 a5 4d 3d
       0.05482648 0.056826886 0.04697397 0.050206218
000050 07 27 8b 3d e4 29 79 3d 2b b3 66 3d bc 5e 93 3d
       0.06794553 0.060830966 0.05632321 0.071958035
000060 31 fb 6c 3d 95 73 28 3d 15 b1 86 3d 0f ef 79 3d
       0.057856742 0.041125853 0.065767445 0.061019
000070 f5 56 22 3d b1 85 5f 3d 19 b8 22 3d c5 aa 35 3d
       0.03963371 0.054570857 0.03972635 0.04435231
000080 f9 04 4d 3d b1 ae 64 3d 49 06 7a 3d 46 f5 39 3d
       0.05005357 0.05583066 0.06104115 0.045399927
000090 62 5f 7e 3d 34 cc 81 3d 47 58 2c 3d d6 a0 3e 3d
       0.062102683 0.06337777 0.042076375 0.046540104
0000a0 94 88 47 3d a5 e4 50 3d fb cc 6c 3d 03 ca 42 3d
       0.048714235 0.050999302 0.057812672 0.047555935
0000b0 9c 87 69 3d 96 b6 6c 3d 9f bb 0e 3d bc b4 58 3d
       0.057014093 0.057791315 0.0348469 0.052906737
0000c0 6f 86 7c 3d e4 37 66 3d 75 2c 89 3d 3c 93 8b 3d
       0.061651643 0.056205645 0.06697933 0.06815192
0000d0 f8 8d 4a 3d 6c c4 4f 3d 04 1c 90 3d 84 98 36 3d
       0.0494518 0.050724432 0.070365936 0.044579044
0000e0 d0 38 82 3d 92 80 61 3d ad d1 5c 3d df 8d 45 3d
       0.063584924 0.055054255 0.0539109 0.048231002
0000f0 cf 98 87 3d 68 f0 76 3d 68 91 87 3d de c1 5d 3d
       0.06620943 0.060287863 0.06619531 0.054139964

layer3.1.running_mean f4 [64]
000000 9f f8 8c 3c 9d de 10 bc 56 8e a9 bd 51 9b d0 bd
       0.017208396 -0.008842138 -0.082791016 -0.10185874
000010 6b 01 e4 3c a9 6f ac 3e 12 57 6e 3d 4f e8 73 bd
       0.027832707 0.3367894 0.058188505 -0.05954772
000020 ca 65 3b 3e 89 5d 57 3d bd 99 37 bc dc 88 26 bc
       0.18300548 0.052579436 -0.011206088 -0.010164466
000030 02 0e 15 3e 24 28 5c 3d 73 97 77 3e c2 ed b2 bc
       0.14556125 0.05374922 0.24178867 -0.021841887
000040 0a 97 86 bd 6a b4 89 3d 22 cd 33 bd aa 6a 75 bd
       -0.06571777 0.067238644 -0.0438968 -0.059916176
000050 5c e2 6c 3b c7 43 1a 3c 8d 08 7a 3e 89 5e ad 3d
       0.0036145663 0.009415573 0.24417324 0.08465297
000060 d6 b0 74 be e3 04 51 bd 2e be 1e 3e 13 06 10 3e
       -0.23895583 -0.05103005 0.15502235 0.14064817
000070 7d 83 2a be 90 22 74 3e c4 ef 3a 3e 38 26 0f bd
       -0.16651721 0.2384131 0.18255526 -0.034948558
000080 7a 06 30 3e 15 41 55 3e 2b 01 84 bc 25 ae 19 3e
       0.1718997 0.20825608 -0.016113838 0.15007837
000090 51 98 e0 3d ba e7 d3 bc a6 bd 25 bc 42 c5 fc 3d
       0.10966552 -0.025867332 -0.0101160165 0.123423114
0000a0 34 7a 4b 3d 25 b3 5b bc 52 17 0a 3e 65 a1 41 bd
       0.04967709 -0.013409411 0.13485458 -0.04727306
0000b0 cd f7 02 3e aa 85 b3 3d 51 47 11 3d f0 b2 15 bd
       0.12789841 0.08765729 0.035468403 -0.0365476
0000c0 b7 ad e0 3d 98 9f a7 3c c6 72 87 bc 8e 45 c3 bc
       0.109706335 0.020461842 -0.01653422 -0.023836877
0000d0 3d a7 df 3d c4 0d 50 bc f6 da cf bd 5a e0 4f 3e
       0.1092057 -0.0126985945 -0.10149185 0.20300427
0000e0 ef 23 39 3d b6 67 99 3d 1a 64 69 3e 8a e7 e7 bd
       0.045200285 0.074904844 0.22792092 -0.113234594
0000f0 ab 51 ba 3d ad 17 11 3c 27 c4 06 3d c4 1c 30 be
       0.09097608 0.008855742 0.03290191 -0.17198473

layer3.1.running_var f4 [64]
000000 ad ab 07 3d 53 ef 37 3d 83 49 09 3d db 9b ea 3c
       0.033122707 0.04490597 0.033517372 0.02863877
000010 7b 39 1a 3d 89 0a 18 3d 17 03 f3 3c b5 1f 30 3d
       0.037652474 0.037119422 0.02966456 0.04299899
000020 8e 13 ea 3c 4e 58 18 3d d5 dd 07 3d 91 2b f7 3c
       0.028573778 0.03719359 0.03317054 0.030172141
000030 5f 79 fb 3c 95 58 f9 3c f1 20 fa 3c d4 c2 14 3d
       0.030697523 0.030437747 0.030533286 0.036318615
000040 60 3e f7 3c 3c 02 eb 3c bf 16 19 3d b9 e8 02 3d
       0.03018111 0.028687589 0.037375208 0.031960223
000050 9a 9a 16 3d 52 9b 14 3d ce ce 12 3d 0a 86 04 3d
       0.036768533 0.036280937 0.035841756 0.032354392
000060 c6 d7 15 3d 9b 63 16 3d a4 f4 2b 3d be 4b 0c 3d
       0.03658273 0.036716085 0.041981354 0.03425192
000070 50 a9 04 3d de 7e 27 3d c2 3d 0e 3d ea e2 da 3c
       0.03238803 0.040892474 0.034726866 0.02671953
000080 db d0 41 3d f8 7a 0e 3d ed 80 e8 3c ca db 03 3d
       0.04731832 0.03478524 0.02838179 0.03219203
000090 b4 da 09 3d 42 99 0c 3d e9 15 06 3d d8 28 33 3d
       0.033655837 0.034325846 0.03273574 0.043740124
0000a0 0d 41 df 3c 68 4f f0 3c 00 f3 29 3d be b5 dd 3c
       0.027252698 0.029334739 0.04149151 0.0270642
0000b0 f1 8b 0c 3d 3d 36 01 3d de 9d eb 3c 5c f1 19 3d
       0.034313146 0.031545866 0.0287618 0.037583694
0000c0 e0 2d f2 3c d4 71 14 3d dd 04 16 3d 0e d1 f6 3c
       0.02956289 0.036241367 0.03662573 0.030128982
0000d0 80 83 03 3d f4 b7 12 3d 77 1e 08 3d 26 1d dc 3c
       0.03210783 0.035819963 0.03323218 0.026869368
0000e0 3b b2 2e 3d 64 ee fa 3c 0f 19 18 3d be db dc 3c
       0.042650443 0.030631252 0.037133273 0.02696025
0000f0 f5 43 31 3d 61 a1 f5 3c d7 65 e1 3c 87 c3 e7 3c
       0.0432777 0.029984178 0.027514381 0.028291477

fc.weight f4 [10, 576]
000000 f6 7d 3b bd c5 a9 4f 3d e4 7e 52 bb d0 22 24 3d
       -0.045774423 0.050699014 -0.003211909 0.040072262
000010 46 aa 13 3c b0 a7 a0 3d 70 59 5c 3c 12 70 82 bd
       0.009012764 0.07844484 0.013449058 -0.06369032
000020 af 25 e0 bc 0c e5 01 3c 54 fc 44 3d 43 3f cd bc
       -0.027361719 0.007928144 0.0480922 -0.02505458
000030 8d 42 f8 3c c2 b9 68 bd bc 4e 7c 3d 9b 11 61 ba
       0.030305171 -0.056817777 0.061598524 -0.0008585692
000040 dd da d3 bc 27 68 44 3c 74 c3 0f bc d2 95 b4 bd
       -0.025861198 0.0119877225 -0.008774627 -0.088176385
000050 c6 8e 99 3d 6a 69 9b 3d 4e 97 9f bd f3 00 da 3c
       0.07497935 0.075884655 -0.07792531 0.02661178
000060 58 e2 94 b6 fe a5 43 bd 88 bd ad 3d 00 41 1f bd
       -4.4370936e-06 -0.047765724 0.08483416 -0.03888035
000070 13 bd a6 3c 82 bd b0 bd 2a c3 ad bc ef c9 64 bd
       0.02035383 -0.08629896 -0.021211226 -0.05585664
000080 72 4d 3d 3d b2 a8 98 3b a4 26 cc bc 9d 85 6d 3d
       0.046216436 0.004658782 -0.024920769 0.05798875
000090 da f1 c1 3c f2 68 b9 3c 11 9e 3b 3d 36 5c 72 bd
       0.023674894 0.02263305 0.04580504 -0.05916997
0000a0 cc c7 83 bd f0 b0 81 bd b0 b8 d9 3c 8a 87 3a 3d
       -0.064345926 -0.06332576 0.026577324 0.045539416
0000b0 29 b0 73 bd b4 b8 15 bd 10 e6 8d 3d ac e6 4d 3d
       -0.05949417 -0.0365531 0.069286466 0.050268814
0000c0 72 6b a6 bd 29 11 42 bd 05 fc 01 bc 11 2d 5c bc
       -0.08125962 -0.047379646 -0.007933621 -0.013438479
0000d0 2e 51 94 3c b6 fe ae 3d fd b8 44 bb 45 df 77 3d
       0.018105116 0.08544676 -0.0030017488 0.06051566
0000e0 3a 00 8c bd ce 0f b0 bd 26 a6 83 3d 62 9e cd bc
       -0.06835981 -0.085967645 0.06428175 -0.025099937
0000f0 3a 73 61 3d 0a b0 dc bb 44 4e 6a 3c f1 1b bd 3c
       0.05504153 -0.0067348527 0.014300887 0.023084613
000100 25 62 fc bc f0 52 5c bd 05 8a c9 3b 9c 46 a8 3d
       -0.030808518 -0.053790033 0.0061504864 0.08216593
000110 43 60 76 3d d8 69 e0 3c d9 c9 21 bc 91 6d 7c bd
       0.060150396 0.02739422 -0.009874784 -0.06162793
000120 35 50 3c bd 36 12 ae bb 41 3c 01 bd ac bc c5 bd
       -0.04597493 -0.0053122295 -0.031551603 -0.09655127
000130 0f 3c 22 bd d6 94 95 3d 81 bd 04 3d 93 8d 67 3c
       -0.039608058 0.07303779 0.032407288 0.014132875
000140 03 16 56 bd 55 d2 e2 3c ae 7f 25 bd 5c 4f 53 ba
       -0.052267086 0.027688185 -0.040404968 -0.00080608367
000150 61 14 89 bd ba a3 9b bc 52 f2 1b bd 9b 36 7c 3c
       -0.0669334 -0.01899897 -0.03807289 0.015393878
000160 76 86 91 3d c0 9f 1a 3d 99 c9 7e bd a8 b2 8b bc
       0.071057245 0.037750006 -0.062203977 -0.017052963
000170 b9 4a 8c 3c 9e 6d 33 3d b2 ef b8 bd ef a0 4a bd
       0.017125474 0.04380571 -0.09030093 -0.049469884
000180 be 3d 91 3c 9c 2d c3 bb d9 73 9c bd a9 7d aa bd
       0.017729636 -0.005956365 -0.07639284 -0.08324749
000190 55 11 f8 bc 2d 15 68 3d fc 31 5e 3c 0b b0 67 3d
       -0.030281702 0.05666082 0.013561722 0.056564372
0001a0 0e de 6d 3d f2 ee de 3c 91 2a 8f bd 08 a9 98 3b
       0.058073096 0.027213547 -0.06990541 0.004658822
0001b0 e1 ce 1f bd cd 8e ae 3d 7b 3f 55 3d 75 0c a5 bc
       -0.039015654 0.08523331 0.052062493 -0.020147542
0001c0 59 59 82 bd 4d f1 4f 3a fe 50 3b bd d3 75 ec bc
       -0.06364698 0.000793238 -0.045731537 -0.028864777
0001d0 a6 59 aa 3c 56 93 90 3c 85 25 59 bd 16 5c de bc
       0.0207947 0.01764838 -0.053014297 -0.02714352
0001e0 c5 bc 45 3d a0 9a 39 bd 6d 88 88 3d 8f 9e a2 bd
       0.048275728 -0.045313478 0.06666646 -0.07940399
0001f0 14 ee 6f 3c 4c c5 cc bc 29 8e 19 3c b6 d9 80 3d
       0.014644165 -0.024996422 0.0093722725 0.06291525
000200 60 f1 9b bd 77 c7 67 3c e0 f2 91 3d a4 d7 0a 3d
       -0.07614398 0.014146677 0.07126403 0.033897057
000210 18 0a 32 3c bb 41 cd bc b8 7a bc 3b 92 f0 40 3c
       0.010866664 -0.025055757 0.005751934 0.011776106
000220 94 ae 01 bc 14 21 24 3d 7a 39 42 3d 3a e1 aa bd
       -0.007915158 0.04007061 0.047418095 -0.0834374
000230 3d 18 4c bd ed 96 36 bc d9 b9 77 bd 67 e2 c8 bc
       -0.049827803 -0.011144382 -0.060479973 -0.02452202
000240 a0 12 1f 3c 07 04 79 bd 59 1c ef bd f3 9a 97 3d
       0.00970903 -0.060794856 -0.11675329 0.07402601
000250 d9 e7 d7 bd c8 f6 a2 3d c5 52 64 bd 63 58 fe bd
       -0.10542268 0.07957226 -0.055742998 -0.12419202
000260 07 85 ce 3d 29 d8 04 3c 92 b8 f8 3c c1 79 98 bc
       0.10083967 0.008108177 0.030361447 -0.018612744
000270 b9 d0 a5 bd 74 4c a6 bc 00 66 45 bc 52 ef 98 bd
       -0.08096451 -0.020300128 -0.0120482445 -0.07467522
000280 e3 95 dc 3c d5 29 07 3d 1f bb a4 bd e8 60 81 bd
       0.02692694 0.03299888 -0.08043503 -0.063173115
000290 89 48 a6 bd 58 e5 f7 3c a9 48 df bb 2b ce 84 bb
       -0.08119304 0.030260727 -0.0068140817 -0.0040528974
0002a0 b7 60 89 3d a0 78 a0 bd a1 97 11 bd f2 96 95 3d
       0.067079 -0.078355074 -0.035544995 0.07304181
0002b0 bd 7b 63 bb fe b2 11 3d 2e ff 27 3d 21 a2 3b bc
       -0.0034711205 0.03557109 0.041014843 -0.011452229
0002c0 18 68 2a 3d 77 4e 72 3d f0 f1 4f bd 15 c8 87 3d
       0.041603178 0.05915686 -0.05076784 0.066299595
0002d0 9f 96 32 3d 95 53 85 3c 48 ed 3a bd 2a 4d 11 3d
       0.043600675 0.016275207 -0.045636445 0.03547398
0002e0 2c 8a 5c 3d 05 c3 6e bd ea 3f 07 bd ab 5f 98 3a
       0.05384271 -0.058291454 -0.033019938 0.0011625191
0002f0 39 93 03 bd f8 6d 1b bc 5c 97 8d 3c a2 2a 08 3c
       -0.032122824 -0.009486668 0.017284088 0.008310946
000300 35 e6 44 3d a7 26 4f 3c 19 1a ac bd 11 09 17 bb
       0.048071105 0.012643493 -0.08403415 -0.0023046175
000310 7c ae 16 bc ce 1d 3d bd 45 dd c1 bd b7 f9 42 3d
       -0.009196874 -0.046171002 -0.09466032 0.047601428
000320 b6 39 d8 bc 7f 05 be bd 20 c3 03 bd 4b 6f 54 bd
       -0.026394706 -0.09278392 -0.032168508 -0.05186395
000330 e2 55 0c bd db 35 7f bc 1c 4e 2b bd 29 31 6a bd
       -0.03426159 -0.015576805 -0.041822538 -0.05717579
000340 2e 63 90 3d a6 04 43 bd d4 2b a1 bc 10 70 b9 bb
       0.07050167 -0.047611855 -0.01967422 -0.005659111
000350 8d f4 91 bd 04 75 8b 3d ee 3a 9b bd 25 d0 62 3c
       -0.071267225 0.06809428 -0.07579599 0.013843571
000360 6a e6 da bb 71 71 a6 3d 0e 0d 44 bd ac dd 30 bd
       -0.0066802995 0.08127106 -0.047864012 -0.043180153
000370 51 81 46 3d 28 79 0e 3d ca 17 e5 bc 3b 63 d1 bd
       0.04846317 0.034783512 -0.027965445 -0.10224005
000380 9c 18 95 bd 77 6b 7b 3d 46 74 6d bd ad 91 45 bd
       -0.072800845 0.061381783 -0.057972215 -0.04823463
000390 fe a8 9b bd 9e 82 fd 3b 6d 19 6f 3d 9b 36 d2 bc
       -0.07600592 0.007736518 0.058373857 -0.025660804
0003a0 41 fb 38 3b 3c 76 7e bd f7 25 9c 3b c5 74 c4 3c
       0.002822593 -0.062124476 0.004765268 0.023981461
0003b0 a8 ea 1d 3d c6 6a ba bd 95 d7 e2 bb 2b aa e5 bc
       0.038553864 -0.09102397 -0.006922672 -0.028035244
0003c0 eb d7 61 3d a5 91 ca 3c f6 24 2a bd 33 92 33 bd
       0.055137556 0.024727652 -0.041539155 -0.0438406
0003d0 91 6d 00 bb ad 9b 04 3c 5d 09 b8 3c 28 fa 97 3d
       -0.0019596557 0.008093757 0.022465402 0.074207604
0003e0 42 22 a7 bd ce 7a 14 3d 2b 4a ac bc 33 4a 9e 3d
       -0.08160831 0.03624993 -0.02103146 0.07728996
0003f0 6d 0d 15 3d 53 dc 29 3d ed a9 ea ba 9c f5 2e bd
       0.036389757 0.041469883 -0.0017903425 -0.0427147

fc.bias f4 [10]
000000 1f 02 91 bb fe 4c 4f 3c bf f3 88 3b 30 36 ee 3c
       -0.0044253017 0.012652634 0.0041794474 0.029078573
000010 d9 09 d4 3b a6 eb 6c bc f9 b2 f4 3a 03 b8 77 3c
       0.0064709005 -0.01446048 0.0018669061 0.015119555
000020 3c 45 bf 3c 1f ac 10 bd
       0.023348443 -0.035320397
